filter_weights.npy (npy, 1580 bytes, 1 tensors)

array f4 [11, 11, 3]
00000000: 96f5 e7bc 3c92 093c 1ef1 c4bb 0499 ddbb
00000010: 988f 003d e6c1 2b3c 4ad3 8a3c 34dc ce3c
00000020: 2011 acbc 6e10 e53c f401 bebb 9626 a2bd
00000030: 5983 ce3c 5e8d 82bc 4424 9abd cc84 e53b
00000040: d83c c8bc 9f6f 50bd 12bf 7dbc 92d2 97bc
00000050: 93d0 983b b606 92bc e5a6 a13c c02c c33d
00000060: c250 9bbc 2c12 9f3c 8e3e b83d 8987 27bc
00000070: dd1f 18bc 643a bf3c 6702 ca3b 7521 41bc
00000080: 4438 cabc 1df7 06bd fd30 853c b9e1 313c
00000090: 1fc8 51bc 64bd 053d 5c8a d73c f1bf 5f3c
000000a0: cc2c a93c 3cd5 9ebc a0f7 dd3c 13d6 3cbc
000000b0: c1a5 b6bd 2fd9 fd3c a4a5 85bc f541 9dbd
000000c0: 30fb 4b3c 9857 98bc 0bb6 1fbd 5e19 7fbc
000000d0: 507e 86bb 9130 053d ba95 c5bc 8af6 f63c
000000e0: 259d f33d 91c4 a8bc b8db 333c c658 a93d
000000f0: cf49 c0b9 0db2 42bc a57b e03b 4b64 ce3c
00000100: e10e 44bc e560 33bd 02f8 1cbd 6a16 623c
00000110: 6a40 283c 19d6 85bc 532e 013d 6bde ee3c
00000120: b7bb 8c3c 9e6e 583c 20b3 febc 8747 c73c
00000130: c41c fbbc c876 e3bd e44b 063d 3967 d4bc
00000140: a6d2 a9bd 2c8b f03b d8c6 d0bc 56ba 21bd
00000150: 1e23 cbbc bbf8 32bb 5bba 713d bc5d d7bc
00000160: 23d8 123d 7c25 1b3e d5e0 c2bc 0648 55ba
00000170: c2c2 9d3d 91fa fd3a c74a bebc e7e5 61bc
00000180: 993b fe3c 9812 9bbc d6c7 92bd 4609 0ebd
00000190: c7c1 a73c 612d bb3c 1029 84bc 7859 053d
000001a0: 0dfb ff3c 2494 9e3c 2550 513c 7130 10bd
000001b0: d36e 0b3d 51dc 0cbd b3c6 edbd 518a 223d
000001c0: af26 d0bc e3c0 9ebd 5e88 e4ba 678e adbc
000001d0: 6457 5abc ba07 09bd 0552 bc3b 09a3 c23d
000001e0: 69be 25bd 1155 0e3d d4ed 2a3e 2fbe f1bc
000001f0: f21f 9539 37ab 993d d81a 633b a231 abbc
00000200: 43f7 eebc 2d95 1a3d 5555 0cbc 42fd 99bd
00000210: 83a2 f5bc 74a1 bf3c 314d fa3c b7a5 f3bb
00000220: 1397 0c3d a8a0 d53c ec23 a43c 3e40 003c
00000230: a3e4 4cbd ff34 233d 4af1 f2bc 25c2 f5bd
00000240: 28a6 063d 4532 99bc 49ab 95bd df1a b4bb
00000250: bf79 24bc 2078 803c 98bf 35bd e46a d13b
00000260: 9507 ea3d e0e5 31bd dec6 e33c 5008 263e
00000270: ca80 c6bc 9f5d efbb 634a 513d b879 673c
00000280: 6cca b1bc c119 5dbd 293d 143d b50f 72bb
00000290: b2bc a8bd 484b d3bc da07 bd3c b9bf da3c
000002a0: 865c d8ba fa57 073d a040 813c babf dd3c
000002b0: b562 013c 10c3 68bd 8b92 323d a5aa bcbc
000002c0: 798f f5bd 8633 e83c 5536 56bc 2bd9 88bd
000002d0: f9ef 32bc 37ac e0bb 7036 dd3c 6781 24bd
000002e0: 5ed4 163c d1cb f63d 79d2 22bd 1b4a af3c
000002f0: 9b59 163e 7aad a8bc 8d10 8cbc 7177 c33c
00000300: 9f66 3b3c db0c b7bc 73d1 8ebd b79e 263d
00000310: 7fa1 503c 02fd 8ebd a314 d6bc f4d2 a73c
00000320: 84e4 9d3c e2fb 8e3b 75b8 003d 5280 853c
00000330: ffb0 b13c 8f34 0bba 2a83 81bd 21c7 103d
00000340: 7d23 bdbc 298c edbd db05 a93c f5cb 43bc
00000350: d304 65bd 838d 22bc 4718 8ebb 0ec3 053d
00000360: f3e1 1cbd d1ab 713b 3707 de3d 2989 08bd
00000370: cff2 843c 9fd5 f93d 2834 9dbc 2bc5 a1bc
00000380: 90ec 173b 21d3 2c3c 9a9d b2bc c799 92bd
00000390: 1374 153d cd28 793c 954f 88bd aadc aabc
000003a0: ac0a c93c 175c 953c 00b9 813b a14b e53c
000003b0: a191 183c 6df5 c93c 2e82 a0b8 93d6 6bbd
000003c0: e054 de3c 80d2 b0bc 50c3 c1bd fd36 5b3c
000003d0: bd21 c4bb 7cb5 06bd bf6e 8bbc c2ec 29bc
000003e0: e605 213d 8e10 edbc bfc2 263b 8da9 d63d
000003f0: a25f 06bd 68b9 0ebb 7684 bd3d 1ccf 4ebc
-0.028315347 0.008396681 -0.0060101887 -0.0067626256 0.03138694 0.010483241 0.016946454 0.025251485
-0.02100426 0.027961936 -0.0057985727 -0.07917516 0.025209116 -0.01593655 -0.07526448 0.007004356
-0.024443075 -0.0508877 -0.015487449 -0.018533025 0.004663536 -0.017825466 0.019732902 0.0953002
-0.018959407 0.019417845 0.08996306 -0.010225185 -0.009284941 0.023343273 0.006164837 -0.011787762
-0.024685033 -0.03295051 0.016258711 0.010857039 -0.01280406 0.03265132 0.026311092 0.013656602
0.020651244 -0.019388787 0.027095616 -0.011525649 -0.08918334 0.03098735 -0.016314335 -0.07678596
0.0124500245 -0.018596455 -0.03899197 -0.015570013 -0.004104413 0.03251702 -0.024119247 0.030146856
0.11895207 -0.020601543 0.010977678 0.08268885 -0.00036676085 -0.011883271 0.006850677 0.025194308
-0.011966438 -0.043793578 -0.038322456 0.013799289 0.010269264 -0.016337441 0.03153832 0.029158792
0.017179353 0.013209967 -0.031091273 0.0243261 -0.030653365 -0.1110664 0.03278722 -0.025928127
-0.08292131 0.0073408093 -0.025485441 -0.039484344 -0.024797019 -0.00273089 0.059015613 -0.026289813
0.035850655 0.15151018 -0.023788849 -0.00081360375 0.07703163 0.0019377043 -0.023229016 -0.013787723
0.031034278 -0.018929765 -0.07167022 -0.034676813 0.020478142 0.022848787 -0.016132861 0.032556027
0.03124764 0.019357748 0.012775456 -0.035202447 0.034041237 -0.034389798 -0.116101645 0.03968269
-0.02540907 -0.07751634 -0.001743566 -0.021186067 -0.0133265 -0.033454634 0.005747082 0.09503753
-0.040464792 0.034749094 0.16692287 -0.029509632 0.00028443296 0.0750336 0.0034653451 -0.02089769
-0.029170638 0.03773992 -0.008565267 -0.07519008 -0.029984718 0.023392417 0.030554386 -0.0074355262
0.034323763 0.026077583 0.02003666 0.0078278165 -0.050022732 0.039845463 -0.029656071 -0.11999921
0.032873303 -0.018700728 -0.07308061 -0.0054963673 -0.010038792 0.01568228 -0.04437217 0.006390916
0.114272274 -0.043432117 0.027804788 0.16214108 -0.024231333 -0.0073048617 0.05109633 0.014128141
-0.021702968 -0.05397964 0.03619114 -0.0036935632 -0.08239116 -0.025792733 0.023075033 0.026702749
-0.0016507066 0.033042885 0.015777886 0.027068961 0.007897069 -0.05682665 0.043596786 -0.023030588
-0.11990256 0.02834488 -0.013074477 -0.066820465 -0.010921472 -0.006856467 0.027003497 -0.04016247
0.009205906 0.12050594 -0.039751504 0.02139764 0.1468262 -0.020590533 -0.017097736 0.023860665
0.011438041 -0.022344997 -0.06973543 0.040678706 0.012733816 -0.06981851 -0.026132887 0.020486332
0.019274004 0.004363523 0.031425912 0.01629654 0.021690844 -0.0005310261 -0.06323846 0.035346154
-0.023088211 -0.11598999 0.020632675 -0.011950483 -0.055912804 -0.009921434 -0.00433639 0.03265672
-0.03830142 0.0036876092 0.1084122 -0.03333393 0.016229061 0.12198948 -0.01918991 -0.019747337
0.0023181774 0.010548384 -0.021803666 -0.07158237 0.03648765 0.015207482 -0.06655804 -0.020857174
0.024541222 0.018232388 0.0039588213 0.027990164 0.009312064 0.024653161 -7.6536424e-05 -0.05757768
0.02714008 -0.02158475 -0.09461081 0.013379809 -0.005985467 -0.03288792 -0.017020581 -0.010371389
0.039312266 -0.028938558 0.0025445668 0.10481558 -0.032806046 -0.0021777991 0.092537805 -0.012622621
